iris_gesture_model.tflite (tflite, 80748 bytes, 6 tensors)

sequential_1/dense_5/BiasAdd/ReadVariableOp f4 [8]
000000 6a 21 8d 3e 6e 52 94 3c 82 21 e9 3d bf c8 16 be
       0.27564555 0.018105712 0.11383344 -0.14725016
000010 03 37 d8 3c da fd 71 3e be 27 cf be 5a 5f 95 be
       0.02639342 0.23631993 -0.40460008 -0.2917431

sequential_1/dense_4/BiasAdd/ReadVariableOp f4 [64]
000000 66 1b 10 3d 1b 51 ef 3d 17 19 2d 3e b5 74 cf bc
       0.03518238 0.116853915 0.16904102 -0.025324205
000010 24 9a 1c 3e d7 34 e5 3d 4f b3 1b 3e 31 fb a1 3d
       0.15293175 0.11191719 0.1520512 0.07909239
000020 48 97 ab 3e 2e 09 a6 3d f5 0a 63 3e 4f 19 a1 3e
       0.33513856 0.0810722 0.22172149 0.3146462
000030 b8 8f 09 3e cd ec 0c bc f7 70 60 3e db e4 11 bd
       0.1343373 -0.00860138 0.21918093 -0.035618644
000040 cb ee 8c 3e bf 8e 7c 3e 52 e9 05 3e 48 40 89 3d
       0.27525935 0.24663828 0.13077286 0.06701714
000050 31 61 8e bd f1 0b 6f 3e 0d 76 a6 3d 56 63 a9 3e
       -0.069521315 0.23344399 0.08127985 0.330836
000060 ff 81 92 3e 62 2e 6d 3e a7 34 ee bd 3e 0e be bc
       0.28614804 0.23162225 -0.116311364 -0.02320015
000070 ff 64 12 3d 2f e5 cd bb 60 d8 41 bd dc df 40 3e
       0.03574085 -0.0062834243 -0.047325492 0.18835396
000080 e4 cb 20 3d ac d7 3b 3e 79 3f 04 3e c0 2b d2 bb
       0.039256945 0.18343991 0.12914838 -0.006413907
000090 4a 4f 9e 3e 85 c2 b8 3e 25 ac e0 3d ec c3 12 3e
       0.30919868 0.36085907 0.10970334 0.14332551
0000a0 c2 e6 76 3e b6 ad 83 3d 2d dc ef bc 36 30 cb 3c
       0.24111465 0.06429617 -0.029279793 0.024803262
0000b0 d3 14 18 3e db e2 5d 3e 5a 07 58 3e c7 f7 54 3e
       0.14851694 0.2166857 0.21096554 0.20797645
0000c0 7e d7 82 3e dc 3c 98 3d 42 7f d6 3e 7a 85 a8 3d
       0.25555032 0.07433483 0.41893965 0.08228584
0000d0 31 5d 17 3e c5 21 89 3e 43 71 68 bc 36 28 00 3e
       0.14781643 0.26783577 -0.01418716 0.1251534
0000e0 a0 30 9b 3e fd b0 84 3e 4a eb 47 bd b1 70 bb bd
       0.30310535 0.2591628 -0.048808374 -0.091523536
0000f0 80 b1 9e 3e 81 1b c7 3d a8 83 91 3e 5e 70 b2 3e
       0.30994797 0.09722043 0.28420758 0.34851354

sequential_1/dense_3/BiasAdd/ReadVariableOp f4 [128]
000000 34 ea f4 bb 00 00 00 00 00 00 00 00 00 00 00 00
       -0.0074742083 0.0 0.0 0.0
000010 00 00 00 00 de b0 23 bc c8 39 c8 bc 00 00 00 00
       0.0 -0.009990899 -0.024441615 0.0
000020 38 df 6e bd 1a bb a9 bc 42 e2 b6 bd 00 00 00 00
       -0.058318347 -0.0207191 -0.08929874 0.0
000030 00 00 00 00 00 00 00 00 89 46 8e bd a8 1e 49 bd
       0.0 0.0 -0.06947047 -0.0491015
000040 d5 f1 f4 bd 0e 26 09 bc 35 3c 85 bb 94 c5 c4 bb
       -0.11960188 -0.008370889 -0.004066015 -0.0060049985
000050 fa 6e 34 bd 46 c3 a8 3d 20 f2 bd bc 00 00 00 00
       -0.044051148 0.082403705 -0.023186743 0.0
000060 00 00 00 00 00 00 00 00 05 ca 1f 3d 5d 2a 12 bc
       0.0 0.0 0.03901102 -0.008921233
000070 6b dd 19 bc 00 00 00 00 4b 27 d7 3d 00 00 00 00
       -0.009391169 0.0 0.105055414 0.0
000080 68 76 c2 bb 70 03 37 3c e6 75 ae bb 00 00 00 00
       -0.0059345253 0.011170253 -0.005324113 0.0
000090 48 9d d1 bb 9a 18 05 bc 65 6a aa bc 04 59 68 bd
       -0.006396923 -0.008123541 -0.020802686 -0.056725517
0000a0 12 82 b4 bb bc a1 c4 bb 66 47 ab bb 00 00 00 00
       -0.0055086697 -0.0060007256 -0.005227017 0.0
0000b0 00 00 00 00 17 16 b5 bd de 38 71 bc 00 00 00 00
       0.0 -0.08842104 -0.014723031 0.0
0000c0 ca bf c1 3c 00 00 00 00 72 de 9a bc fe 1b 9a bc
       0.023651022 0.0 -0.018904898 -0.018812176
0000d0 55 c0 9c bd 7d 53 84 3d d8 d3 41 bc 77 0d c0 bc
       -0.07653872 0.064612366 -0.011830293 -0.02344392
0000e0 1e 21 b0 bb 00 00 00 00 00 00 00 00 f2 29 e9 bc
       -0.0053750416 0.0 0.0 -0.028462384
0000f0 00 00 00 00 22 a3 48 3c 4f a4 ed bb fa b0 49 3c
       0.0 0.012245925 -0.007252253 0.012310261
000100 1c 5b 00 3d 00 00 00 00 00 00 00 00 00 00 00 00
       0.03133689 0.0 0.0 0.0
000110 84 9a 98 bc 00 00 00 00 b3 71 f9 bd 00 00 00 00
       -0.018628366 0.0 -0.121798895 0.0
000120 00 00 00 00 00 00 00 00 ba 41 81 bc 96 13 f1 3c
       0.0 0.0 -0.015778411 0.029428285
000130 a6 b1 b3 3d 2e 84 34 bd 10 97 e8 bb 00 00 00 00
       0.08774118 -0.04407137 -0.007098086 0.0
000140 00 00 00 00 58 c9 ef bd 55 4b 78 bd be dc 57 3d
       0.0 -0.11708325 -0.060618717 0.05270075
000150 00 00 00 00 00 00 00 00 19 4d b5 bd 78 36 6e 3c
       0.0 0.0 -0.08852596 0.014539354
000160 88 28 73 3d e8 59 bd bb 64 a6 df bc bf 22 bb 3c
       0.059364825 -0.00577854 -0.02730102 0.022843717
000170 00 00 00 00 00 00 00 00 c4 1f 8b bc 00 00 00 00
       0.0 0.0 -0.01698292 0.0
000180 90 0c 77 3b 97 c3 82 bd 00 00 00 00 00 00 00 00
       0.0037696697 -0.06384962 0.0 0.0
000190 90 e9 35 bd 49 67 fc 3c 14 19 1a bc 00 00 00 00
       -0.044412196 0.030810969 -0.009405393 0.0
0001a0 00 00 00 00 7f 3e d7 3c 19 15 58 bc 00 00 00 00
       0.0 0.026274918 -0.013188624 0.0
0001b0 f4 18 a9 bd 00 00 00 00 00 00 00 00 00 00 00 00
       -0.082567126 0.0 0.0 0.0
0001c0 00 00 00 00 9e fa 92 bc 00 00 00 00 00 00 00 00
       0.0 -0.01794177 0.0 0.0
0001d0 76 18 ff bb 00 00 00 00 63 98 36 bc 2a 4b 00 bd
       -0.0077848984 0.0 -0.01114473 -0.031321682
0001e0 00 00 00 00 00 00 00 00 a1 25 d9 bc 54 b7 c0 bb
       0.0 0.0 -0.0265072 -0.0058812294
0001f0 8d e2 01 bc d1 1e 30 3d 00 00 00 00 6a 32 39 bd
       -0.007927549 0.04299814 0.0 -0.045214094

sequential_1/dense_3/MatMul f4 [128, 84]
000000 d3 ef a1 bd 7b af e2 3d e9 b6 0a bd a7 08 b0 bd
       -0.07907071 0.110686265 -0.033865843 -0.085954
000010 6a 3b b8 3c 58 0b 3d 3c d5 22 e0 bd 0a a4 d1 3d
       0.022489268 0.011538349 -0.10944144 0.10236366
000020 0b f9 c6 bb 42 90 31 3d eb 18 b7 bd 57 7e 0c bc
       -0.0060721687 0.043350466 -0.089402996 -0.008575044
000030 9d c2 24 be 51 f9 16 be b3 d6 9a bd 10 be b6 bc
       -0.16089864 -0.14743544 -0.07560482 -0.022307426
000040 3e 1b db 3d de cf 17 3e c5 97 82 bd 71 af 18 3e
       0.106985554 0.14825389 -0.06376604 0.14910676
000050 4a 1a 94 bc 98 1c 05 3e 72 bb dc bd 75 d6 4f 3c
       -0.018078942 0.12999189 -0.1077794 0.012685408
000060 74 ac 21 3c 23 31 02 3e db 01 b6 3d 93 ed 5f 3d
       0.009867776 0.12714057 0.08887073 0.054669928
000070 b7 7c 13 3d 22 7a 62 ba b2 55 bc 3d 78 94 02 be
       0.03600761 -0.0008639415 0.091960326 -0.12751949
000080 cd e5 21 be fa e3 24 be a2 ad 83 3c 16 ea 45 3d
       -0.15810318 -0.16102591 0.016074006 0.048318945
000090 40 5a 09 bd 67 ae da 3d ae 58 02 3e d2 eb ea ba
       -0.033533335 0.10677796 0.12729141 -0.0017923063
0000a0 1d 1c e7 3c d0 0b 0b 3e 48 3f 1c be 08 eb 08 3e
       0.028211648 0.13578725 -0.15258515 0.13370907
0000b0 31 01 dc 3d 4a 7e f7 3c f4 4c 1c be a3 74 f4 3d
       0.10742415 0.030211587 -0.1526373 0.11936309
0000c0 36 bb c7 3c e1 58 af 3d 2c 8a d7 bc 50 99 ba 3d
       0.024381261 0.08561874 -0.026311003 0.09111273
0000d0 b3 37 54 bb 32 ae 0c 3e 0a 56 cf bd a7 c3 ad 3d
       -0.0032381832 0.13738325 -0.101238325 0.08484583
0000e0 11 d1 e8 3d b7 96 ee 3d 85 71 75 bd 6a f1 3b 3d
       0.11368001 0.1164984 -0.059922714 0.045884527
0000f0 aa 4f f7 bd b0 df 13 bc da 8e c8 bd e4 51 6a 3d
       -0.120757416 -0.009025499 -0.09792872 0.057207003
000100 c4 c8 f3 3b 1f f3 69 3b be 56 1c be 28 76 9c bd
       0.0074397046 0.003569789 -0.15267465 -0.07639724
000110 a5 56 90 bd 90 a4 07 3d 11 7c 1c 3e 64 7e f2 3d
       -0.07047776 0.033115923 0.15281703 0.11840513
000120 2e 74 01 3e 0f 64 2e 3d 46 51 c5 3c cf b1 3a 3d
       0.12641975 0.042575892 0.024086606 0.045579728
000130 e3 1c 60 bd e5 bf 08 bc e7 a0 e2 3d 25 50 eb bd
       -0.05471505 -0.0083465325 0.11065846 -0.11489896
000140 89 0f c8 3d b7 c4 bb 3c 02 27 bd bd 1b 52 7a bd
       0.09768588 0.02292095 -0.09235956 -0.061113458
000150 d4 cc 5c bd a2 75 cb 3d 00 b6 2d bc e8 89 ee bc
       -0.053906277 0.09934546 -0.010602474 -0.029118493
000160 10 a7 42 3d fe 6c 21 be 1e 03 ae 3d 68 0b 36 bd
       0.047522604 -0.15764233 0.08496688 -0.04444447
000170 dd 94 29 3e 9c 85 b0 bd 38 3c 9c 3c 5c 13 56 3d
       0.16560693 -0.08619234 0.019071683 0.052264556
000180 80 c5 e7 3a 68 74 00 bd a0 ab 1a bd 00 9b 77 3a
       0.0017682761 -0.031361014 -0.03776133 0.0009445399
000190 f6 74 87 3d 44 a8 20 be 40 10 22 be e4 62 1d be
       0.066141054 -0.15689188 -0.15826511 -0.15369755
0001a0 ae 2c 02 be 72 a0 f8 bd f7 33 1f 3e bf dd 01 3e
       -0.12712356 -0.121399775 0.15547167 0.12682246
0001b0 a5 3e 21 be 70 71 f0 bc 7b e1 0c be a8 6d bd bd
       -0.15746553 -0.029350966 -0.13757889 -0.09249431
0001c0 76 48 d4 bd 40 38 84 bd ed 36 e8 bd f5 6b 2a be
       -0.10365383 -0.06456041 -0.11338601 -0.16642745
0001d0 15 e0 c1 bd be f4 17 be 30 ef 03 be a0 78 38 bc
       -0.094665684 -0.14839455 -0.12884212 -0.011259228
0001e0 0a 18 bf 3d cd 17 0e 3e 00 30 88 bb d5 09 04 3e
       0.09330757 0.13876267 -0.0041561127 0.12894376
0001f0 ea b6 dd 3d 90 84 8a 3d 5d 0e 21 3e f7 03 09 3e
       0.10825904 0.067635655 0.15728135 0.13380419
000200 a8 25 43 3d 4e 9f f6 3d 09 b8 f7 bd 28 18 10 be
       0.047643334 0.12042104 -0.12095649 -0.14071715
000210 01 3d bb bd 86 1e c6 3d 4c 0b 18 bd ec bf ba bd
       -0.09142495 0.09673791 -0.03712015 -0.091186374
000220 8d ca bb bd f5 89 04 3e 7d 11 0d be 90 d1 1a 3d
       -0.09169493 0.12943251 -0.13776202 0.03779751
000230 6c 61 e4 bd da 78 8e bd 58 7b e5 bc 82 a6 e5 bd
       -0.11151394 -0.06956644 -0.028012916 -0.112133995
000240 a2 fc 60 bd f4 6b 23 be 38 d2 44 bd f0 e3 f2 3c
       -0.05492843 -0.1595915 -0.048052043 0.029649705
000250 6b 6b 13 3e 25 d7 f8 bd ad e6 11 be a6 00 e1 bd
       0.14396445 -0.121504106 -0.14248152 -0.10986452
000260 0a b0 27 be b1 dc 1d be 7f fb 1e 3e 9b 63 93 bd
       -0.16375747 -0.15416218 0.15525626 -0.071967326
000270 de bd e4 3d 1e 9a 71 bd 80 33 f8 bc f6 38 00 be
       0.11169027 -0.05898487 -0.030297995 -0.12521729
000280 f1 20 1d 3e 23 66 25 3e 6e 09 d1 3d 66 41 ae bd
       0.15344597 0.16152243 0.10206877 -0.085085675
000290 12 c2 9a bd 1e 9b fe 3d 23 27 12 3e ae ac ad 3d
       -0.07556547 0.1243193 0.14272742 0.08480202
0002a0 42 79 76 bd c0 e2 89 3b f3 b3 0a be 1b 43 0d 3e
       -0.060174234 0.004207939 -0.13545208 0.1379513
0002b0 a9 02 13 be 8f 4b 13 3e 3a 80 aa 3d ac 87 8a 3d
       -0.14356484 0.14384292 0.083252385 0.067641586
0002c0 60 c7 f1 bc 88 50 53 bd 4c a8 5f bd 40 50 15 bb
       -0.029514015 -0.051590472 -0.05460386 -0.0022783428
0002d0 80 ad 66 bc c6 e7 9a bd c2 e0 c9 3d 29 dd 9b bd
       -0.014079452 -0.075637385 0.09857322 -0.07610542
0002e0 17 1b 1d be 54 3d 43 3d 6e dd b6 3d ff 8d d3 bd
       -0.15342365 0.04766591 0.08928953 -0.10329818
0002f0 70 df b9 bd 7f 64 01 be 42 8b 10 be 94 ee 24 be
       -0.090758204 -0.12635992 -0.14115623 -0.16106635
000300 c0 da 1d 3c d5 a8 93 bd 9c 23 a2 3d 20 3b 39 bc
       0.009634674 -0.072099365 0.07916948 -0.0113056
000310 66 4a df 3d 37 79 05 be e4 12 9c 3d f6 e8 88 bd
       0.10902862 -0.13034521 0.076207906 -0.06685059
000320 50 7c 1a bd 70 7a 96 3d d0 09 49 3d 52 13 1a be
       -0.03771621 0.07347572 0.049081624 -0.15046433
000330 1d 02 07 3e 82 c0 d9 3d bf 94 1c be 40 47 7a bb
       0.131844 0.10632421 -0.15291117 -0.003818944
000340 d6 f8 e9 3d 84 00 15 3d c8 a6 ab 3c 14 18 01 be
       0.11424415 0.036377445 0.020953551 -0.12606841
000350 cc 74 98 3d 10 4b 4c 3d 28 e5 bd bc c0 8e 1a bb
       0.07444152 0.049876273 -0.02318056 -0.002358362
000360 ed a0 05 3e d6 ea a2 bd 30 ae 65 3d ae ab 9e 3d
       0.1304967 -0.07954948 0.05607432 0.07747589
000370 80 c6 a6 3c 62 74 a3 3d 78 54 d0 bc f6 4a c7 3d
       0.020358324 0.07981183 -0.025430903 0.097310945
000380 04 4e 01 3d a1 11 07 3e c2 b9 96 bd 40 af 88 bc
       0.031568542 0.13190319 -0.07359649 -0.016685128
000390 a0 a6 0f 3c 20 1a 12 3c 2e 6b ce 3d fa 5d 6b bd
       0.008767754 0.0089173615 0.10079037 -0.05746267
0003a0 68 ed 8d bc 68 b1 dc bd 92 d7 b4 3d 05 50 12 be
       -0.017325118 -0.10776025 0.08830179 -0.14288338
0003b0 40 09 4c 3c 12 a4 ef 3d 12 eb c6 3d 95 71 03 3e
       0.012453377 0.11701216 0.09712805 0.12836297
0003c0 6c f9 94 bd 63 a3 1a 3e 18 9a 86 3d f5 c2 f5 bd
       -0.07274136 0.1510139 0.0657236 -0.12000076
0003d0 8d a2 06 3e ed 30 06 3e 49 52 26 be fc 7f 0b be
       0.13147946 0.13104601 -0.16242327 -0.13623041
0003e0 ea 57 e4 3d fe a1 af bd 58 42 e6 bc 98 35 e5 3c
       0.11149581 -0.085758194 -0.028107807 0.027979657
0003f0 b6 04 f9 3d 04 07 4d bd 40 ed e4 bc 43 79 09 be
       0.12159102 -0.05005552 -0.02794516 -0.13425164

sequential_1/dense_4/MatMul f4 [64, 128]
000000 1f 38 01 3e 00 bb 50 bc 0b 41 0f be c4 de 92 3d
       0.12619065 -0.012739897 -0.13989656 0.071713954
000010 44 be 33 be d5 e3 d9 bd 1a 8b dd bd 63 23 00 3e
       -0.1755305 -0.10639159 -0.10817547 0.12513499
000020 8e 91 8f 3e 86 07 11 3e 93 d2 1e 3e 02 bb 15 be
       0.28040737 0.14163026 0.15510015 -0.14622119
000030 60 20 3e bd 40 4e f0 bb c7 d6 74 3e ce 2b 42 3e
       -0.046417594 -0.007333547 0.23910056 0.18962023
000040 c4 a1 4b 3e 0d 69 0e bd f6 d7 87 3c cf 9e 90 3d
       0.19885927 -0.034768153 0.01658247 0.0706154
000050 47 82 00 3f 55 a6 88 3d ab ee 17 bc c4 0d 2e 3d
       0.5019879 0.0667235 -0.0092732115 0.042493597
000060 44 53 f8 bd 18 37 b1 3c ff 8c fc be ca ee 14 3e
       -0.12125257 0.021632716 -0.4932632 0.14544216
000070 7b d4 35 3d 81 ef 23 be 58 fa 8c 3d 50 4f 8a 3d
       0.04439209 -0.16009332 0.06883687 0.06753409
000080 de b3 b4 3d 18 f9 8b 3d 55 2c c8 3d 90 27 72 3d
       0.088233694 0.0683462 0.09774081 0.05911976
000090 cd d1 ee bc 01 65 08 bf 18 f6 c9 be 49 58 59 3e
       -0.029152775 -0.5327912 -0.39445567 0.21225084
0000a0 ef 7d 26 3e 62 ac 05 bd f7 c7 fb bd d7 b5 32 be
       0.16258977 -0.0326351 -0.12294 -0.17452179
0000b0 8b 98 de bd 88 9e c7 3e e5 e8 b3 3f a0 42 70 bc
       -0.10868939 0.38988137 1.4055449 -0.014664322
0000c0 2b bc 30 3f 33 28 21 be 87 d6 2c 3d 5f c5 c9 be
       0.6903712 -0.15737991 0.042196777 -0.39408395
0000d0 60 2c eb be 14 31 f9 3d f9 7e 20 be f6 c2 93 3f
       -0.45932293 0.12167564 -0.15673436 1.1543872
0000e0 e0 69 b2 3f e3 d1 29 be 18 2b 16 3d c8 d5 79 3f
       1.393856 -0.16583972 0.03666219 0.9759183
0000f0 e3 f9 ae bd 95 25 8f 3d c0 ae eb 3d b1 8c 83 3f
       -0.08543756 0.0698959 0.1150794 1.0277311
000100 92 04 7e 3d c2 d6 d3 bd d8 b9 f4 3c 0c 43 77 3d
       0.062016077 -0.10343696 0.029873773 0.060366675
000110 6c 33 f2 3d d8 91 f2 3c 8e b4 1e 3c 5a 13 f9 bd
       0.11826214 0.02961056 0.009686602 -0.12161894
000120 40 8b 8d 3c c3 ff 13 3e b3 36 c5 be 42 f3 6f be
       0.017278314 0.14453034 -0.38518295 -0.23432639
000130 d6 7d f7 3d ac 51 25 be 5f 34 81 3d c8 43 ac 3c
       0.12084548 -0.16144437 0.06308817 0.021028414
000140 c0 40 0e 3d 3f 15 99 bc b9 ce 1f 3f 11 17 0e 3e
       0.03472972 -0.018686889 0.6242481 0.13875987
000150 a0 8d 31 bd 09 86 90 bd 25 46 77 3f dd 03 4a 3f
       -0.043347955 -0.07056815 0.9659141 0.78912145
000160 04 8e 4b be ff e9 e8 bd 0c d1 9c 3f 44 d9 b8 be
       -0.19878393 -0.11372756 1.2251296 -0.3610326
000170 62 60 f6 3d 43 89 f1 bd 0d 19 15 3d 6f 62 95 bd
       0.12030102 -0.11793759 0.036400843 -0.07294165
000180 4c de 99 3e ea 22 51 3e 6e 56 96 3d 9a ff b4 bd
       0.30052412 0.20423475 0.07340704 -0.08837815
000190 92 15 a4 be e6 c4 b2 bc 35 54 25 3d 8e 90 97 3d
       -0.32047707 -0.021822404 0.04036351 0.074006185
0001a0 c0 25 58 3d 09 aa 82 bd 3c cf eb bc 3f 12 30 be
       0.052770376 -0.06380088 -0.02878534 -0.1719446
0001b0 99 99 3f 3e 28 41 a8 bc 41 a3 28 3e f9 22 29 3e
       0.18710937 -0.020538881 0.16468526 0.16517247
0001c0 80 17 f2 bd a5 16 79 be ff 24 1c 3e 30 14 80 bc
       -0.118208885 -0.24325044 0.15248488 -0.015634626
0001d0 d8 d8 94 3f 08 84 15 be 91 6f 0b 3e a2 88 14 3f
       1.1628675 -0.14601147 0.13616778 0.58020985
0001e0 c0 26 84 bd 84 16 34 3d 39 e1 21 bf 31 53 75 3d
       -0.064527035 0.043966785 -0.6323429 0.05989379
0001f0 45 e3 2c bd fa 64 ae bd 65 34 c1 bd e8 6c 55 3f
       -0.04220893 -0.085153535 -0.094338216 0.833693
000200 a3 f5 da bc b2 06 f4 3d ea 9e c6 3d 3b c2 03 3e
       -0.026728457 0.119153395 0.09698279 0.12867062
000210 67 36 f4 bd 89 39 00 be 7e 8a 11 3f 7f 6b 0e be
       -0.11924439 -0.12521948 0.5685195 -0.13908194
000220 44 cf f3 3e bd 50 fa be c1 21 29 be 98 d8 89 bc
       0.4761907 -0.48889723 -0.16516782 -0.016826913
000230 cb 9d 1a 3e 4a 52 ce 3d 93 a4 22 3f 32 19 32 be
       0.15099256 0.10074289 0.6353237 -0.17392424
000240 95 bb 1c 3f 56 2a aa 3d d6 e3 9c bd 13 7a e1 bd
       0.6122373 0.08308856 -0.07660644 -0.11009612
000250 e5 d5 16 bf 3c dd 0d 3e aa b8 64 be 47 8a 2c 3e
       -0.5892013 0.13853925 -0.22336069 0.16849624
000260 5b 9b 23 3e f2 86 2d be e8 63 1f 3f bb e7 29 3e
       0.15977232 -0.16946009 0.6226182 0.16592304
000270 f3 28 21 be 32 3e b2 bd 92 3f 4d 3e c7 84 a1 bd
       -0.15738277 -0.08703269 0.20043781 -0.078866534
000280 a2 47 05 bd ce 54 65 3f ac 04 21 be 70 00 1e bc
       -0.032539017 0.89582527 -0.15724438 -0.009643659
000290 3c 62 cc 3d 04 3a a8 3d 2c 05 c4 3e 93 3f 0d 3f
       0.09979674 0.082141906 0.38285196 0.5517513
0002a0 56 17 18 3e f5 23 21 bd a4 b4 14 bd 50 7e 77 bd
       0.14852652 -0.039340932 -0.036305085 -0.060423195
0002b0 50 cb 07 bd 5e 13 22 3e 1c 40 f5 be f3 77 17 3e
       -0.03315288 0.158277 -0.47900474 0.14791851
0002c0 02 46 cf 3e c4 eb 22 be 7c 22 1a be 20 8e 45 3e
       0.404831 -0.1591025 -0.15052217 0.19292498
0002d0 a6 52 00 3f 49 bd c4 bb 8e 55 9f 3d 45 4b 3f be
       0.5012611 -0.00600401 0.0777999 -0.18681057
0002e0 60 92 c6 be aa 76 fc 3d f2 b8 8c 3d f3 e0 9a be
       -0.3878355 0.12327321 0.06871213 -0.30249748
0002f0 08 45 bf bc 9d 9d 95 3e 14 79 86 3d 7d 2d 7d 3f
       -0.023348346 0.29221812 0.065660626 0.98897535
000300 fa dc 5f 3f 25 08 d8 bd cb 2f 94 bd 08 8d da bc
       0.8744656 -0.105484284 -0.07235678 -0.026678577
000310 b6 cd f1 3e 0c cf 15 3d af 19 b7 3e 34 66 17 bd
       0.47227257 0.03657441 0.35761783 -0.036962703
000320 51 7c 05 be 5a f0 a4 3d 1f b0 31 3e e5 2d 1e 3f
       -0.13035704 0.08053656 0.17352341 0.6178878
000330 77 87 c5 bd 63 fa 2d 3f 0b d1 09 be 56 c0 ac bd
       -0.096449785 0.67960185 -0.1345865 -0.08435123
000340 cb 72 17 3e 8f 7b cd 3e d2 32 5e 3f 0f f6 2e 3c
       0.14789884 0.4013333 0.86796296 0.010678782
000350 43 61 33 3e 4c bc e6 bd af c1 30 3f 0a c7 cd be
       0.17517571 -0.112663835 0.6904554 -0.40190917
000360 fa 3b 02 3f a9 62 1d bd ca f7 d4 be f4 9f 92 3e
       0.50872767 -0.038424168 -0.41595298 0.2863766
000370 71 09 d1 bd c0 15 2e bd 99 b9 ee bd 30 42 1f bc
       -0.10206879 -0.04250121 -0.11656494 -0.00972037
000380 d9 35 28 bc d2 65 f7 3e 81 b2 02 3e a4 ad 42 3d
       -0.0102667445 0.4831987 0.12763406 0.047528878
000390 1e 46 0a bf a3 cf 46 be 4a 92 7d bd d4 ea 2e be
       -0.5401324 -0.19415145 -0.06190709 -0.17081767
0003a0 40 b4 58 3c c5 01 3c 3f 22 87 bd 3d 4a 1f 9c bd
       0.013226569 0.734402 0.0925429 -0.076231554
0003b0 bf 4e 80 3d 03 3d 26 be ae b0 11 be 20 ac 2f 3d
       0.062650196 -0.16234212 -0.14227554 0.04288876
0003c0 c8 cb 38 bd d2 e6 16 3f bf ed 00 3e f4 ad 45 3d
       -0.045116216 0.58945954 0.12590693 0.048261598
0003d0 3f 0c 10 bf 55 f3 87 bd 2a 9e 7d 3d 6b 05 6b be
       -0.56268686 -0.06638209 0.061918415 -0.22951286
0003e0 23 f2 1a be 44 49 64 3d e7 c9 2a 3e 94 fc de be
       -0.1513143 0.055733934 0.16678582 -0.43552077
0003f0 bf 20 f8 3c e5 0b 1d 3f 40 86 66 bc 7d a9 40 3f
       0.030289052 0.61346275 -0.014070094 0.7525862

sequential_1/dense_5/MatMul f4 [8, 64]
000000 19 7a 06 3b 7b ac 27 c0 6e 99 71 3e fb 72 8c b9
       0.0020519553 -2.6199024 0.23593685 -0.00026788548
000010 d4 60 28 3e 8b 86 ea 3e 2c 61 75 bf 11 37 13 c0
       0.16443187 0.45805773 -0.958514 -2.300236
000020 c0 21 c6 3e f0 52 4c bf 4f 17 35 3e f1 26 96 3e
       0.38697624 -0.7981405 0.17684673 0.29326585
000030 bc 46 17 c0 ef 0a db 3e 19 f3 8f 3e 20 08 0f 3e
       -2.3636923 0.4278178 0.28115156 0.13967943
000040 f7 98 3b 3e c0 0a 01 c0 82 b4 ed bf c4 6d d7 bf
       0.1832007 -2.0162811 -1.8570712 -1.6830373
000050 23 e8 dd 3d e4 a6 16 bf ae 2b 48 bf ed 24 08 3f
       0.10835292 -0.58848405 -0.7819165 0.53181344
000060 76 64 0c 3f ca 63 90 3e 4c f6 28 bf 9e 91 3b be
       0.5484079 0.28201133 -0.6600082 -0.18317267
000070 d1 c1 de be dd 15 c9 3e da 8b 0b c0 c3 a9 fe bf
       -0.43507245 0.39274493 -2.1804109 -1.9895557
000080 69 0a 1f 3f 9b 0a d6 3e c3 6b 51 3d fe 16 df bf
       0.6212526 0.41804966 0.05112816 -1.7428892
000090 a0 95 87 be 1b eb aa 3c a8 c2 3b bf d2 14 9e be
       -0.26481342 0.02086406 -0.73343897 -0.3087526
0000a0 e4 10 72 3e 32 51 25 c0 c5 58 48 be d4 22 d4 3e
       0.23639256 -2.5830808 -0.19565113 0.41432822
0000b0 83 97 d6 3e bb 17 a0 3f f4 78 b9 3e 4c 88 bc bd
       0.4191247 1.2507242 0.36225092 -0.09205684
0000c0 70 25 ea 3e 86 a1 f9 3e dd a5 9c 3e be af 2d c0
       0.45731688 0.48756045 0.30595294 -2.7138515
0000d0 3e 46 23 3f 94 43 95 bb 32 1c d2 bf 04 0c 2e bf
       0.63779056 -0.004555175 -1.6414855 -0.67987084
0000e0 48 e3 8e bc 72 60 9e 3e 4b e9 09 3f 01 f0 00 bf
       -0.01744236 0.30932957 0.538716 -0.50366217
0000f0 ef 8e bd 3e 79 c0 e1 3e 1a 2e bf 3e 10 66 91 3e
       0.37023112 0.44092157 0.3733986 0.2839818
000100 25 b2 00 bf c9 d3 6d 3e e3 1f 08 c0 33 fb 56 3e
       -0.50271827 0.23225321 -2.1269462 0.20994262
000110 05 59 91 bf be 59 00 c0 b1 9a 88 3e 7d 0a d5 3e
       -1.1355292 -2.0054774 0.2668052 0.41609564
000120 13 f3 29 3e 23 17 21 3e 57 6d 19 bf b3 ed 20 be
       0.16596632 0.15731482 -0.59932464 -0.15715675
000130 7c fc 9f 3e 90 20 c0 bf 3f f7 17 bf dc 9f d4 bb
       0.31247318 -1.5009937 -0.5936164 -0.0064887833
000140 77 35 9c 3e 4f 6c cc 3e 0c bb ef 3e 8d d2 74 3f
       0.3050954 0.39926383 0.46822393 0.95633775
000150 dc 83 a4 bf 45 c7 4d 3e 8b 1c 56 3e cd ba a6 bf
       -1.285274 0.20095547 0.20909326 -1.3025757
000160 2f 3e fe bf 21 67 0b 3f 92 ab 6d be 0c 3e 88 be
       -1.9862727 0.5445424 -0.2320998 -0.26609838
000170 c5 1b 04 bf ec cf de bf 09 65 29 3e 96 e3 b1 3e
       -0.5160487 -1.7407203 0.16542448 0.34743947
000180 bf ea 10 bf 98 f2 a7 be b4 14 4f be b4 dc 09 3f
       -0.56608194 -0.32802272 -0.20222741 0.5385239
000190 12 c3 88 3e 61 5e e0 3e 02 96 f5 3e 09 5b 55 3d
       0.26711327 0.43822005 0.4796601 0.05208877
0001a0 93 37 af 3e a9 50 76 3e 84 c2 8f 3d f9 b1 f4 bf
       0.34222087 0.24054207 0.07019523 -1.9116813
0001b0 cd 58 11 c0 21 8f d5 bf 13 75 9e 3e 76 bb a3 bf
       -2.271045 -1.6684304 0.30948696 -1.2791584
0001c0 e2 ad 7a 3e 44 f3 d4 bf f8 02 93 3e a2 c0 89 3e
       0.24480394 -1.6636739 0.28713202 0.2690478
0001d0 0e b3 d9 bf 40 12 b1 3e ef 27 78 3e b1 e0 ea 3d
       -1.7007768 0.34584236 0.24233983 0.11468638
0001e0 64 2e 81 3e 6f 22 ca bc c8 13 3b bd bc ad 39 be
       0.25230706 -0.024674622 -0.04567316 -0.1813268
0001f0 a2 c8 c1 3e 33 f0 fb 3e 1a 1d c9 bd 08 c2 29 3e
       0.37848383 0.49206695 -0.09820004 0.16577923
000200 7e 72 ef bf 6a 68 47 be b6 a0 a2 bd 8b 2d 5b be
       -1.8706815 -0.19473425 -0.079408094 -0.21404092
000210 74 8b dd bf 46 f7 ff 3d 5b 2a 41 3f 24 21 95 bc
       -1.7308183 0.124983355 0.75455254 -0.01820428
000220 1c a8 af 3e 53 ad f6 bd 88 e1 4a 3f 54 be 22 bc
       0.34307945 -0.12044778 0.79250383 -0.009933073
000230 de 78 b9 bd 4f 85 a4 be c7 96 7d bf f5 03 a1 be
       -0.09056257 -0.32132956 -0.9905819 -0.3144833
000240 fb 1e 1e 3e 13 56 4e 3e 3f 98 f1 3d b1 f5 d9 3e
       0.15441506 0.20150022 0.11796617 0.4257026
000250 c2 51 ef bf eb c8 fb 3e 97 56 44 bd dd 7c f1 3d
       -1.8696826 0.49176726 -0.04793414 0.11791394
000260 23 c0 47 3d 19 86 66 3e 95 53 b7 3e 9e 01 77 be
       0.04876722 0.22512092 0.35805956 -0.2412171
000270 db 31 c4 bf df 55 a4 bf 98 41 82 bf 7a 5d f9 3c
       -1.5327715 -1.2838706 -1.0176268 0.03044008
000280 c2 56 a2 bf 84 49 ed 3e a4 12 c3 bc c6 91 6e bf
       -1.2682726 0.4634515 -0.0238126 -0.9319118
000290 f5 c8 89 3e 7f 37 c2 3e f2 7b 5e 3e 83 ea b4 3c
       0.2691113 0.37932965 0.21726969 0.02208448
0002a0 75 21 0f 3f 2d 0c ad be 9d 96 08 be 3a 12 ce bf
       0.55910426 -0.33798352 -0.13338704 -1.6099312
0002b0 b3 9e 09 3e d3 90 00 bf 4d 25 d1 3e 56 86 f1 be
       0.13439445 -0.50220984 0.4084877 -0.47172803
0002c0 19 00 31 3e 96 c0 bf bf 3e c0 ee 3e 39 58 a0 be
       0.17285194 -1.4980648 0.46631044 -0.3131731
0002d0 b7 1f 21 3f 06 51 dc 3e ab 59 51 bf c8 98 09 3f
       0.6293902 0.43030566 -0.8177745 0.5374875
0002e0 b0 18 69 3e 1f dc 61 3e 89 6e 23 3f 82 66 cf bf
       0.22763324 0.22056626 0.6384054 -1.6203158
0002f0 4e c5 0d 3f c2 77 18 3f 2e fc 69 3e 5d 28 09 3f
       0.5537919 0.59557736 0.22850105 0.53577214
000300 19 09 45 3f c2 cc 8a bf 2b e0 36 3e 39 ea 0c 3e
       0.76967007 -1.0843737 0.17858951 0.13761224
000310 d0 3e 3d 3f 63 50 b7 3e bc c4 0b bf 08 fa a6 bf
       0.7392397 0.35803518 -0.5459707 -1.3045053
000320 96 ca b0 3e ea 23 14 c0 ab 7e 52 be cb a9 02 3f
       0.3452956 -2.314692 -0.20556132 0.51040334
000330 7b bd 64 bf df 85 b1 3e 3f c3 2b 3f 6a 62 af bd
       -0.89351624 0.34672448 0.67094797 -0.08563693
000340 dc 1c ea 3e 2a e4 91 bf 56 80 87 bf 87 86 6a bf
       0.45725143 -1.1397755 -1.058604 -0.9161152
000350 05 a1 1a 3d f8 c1 57 bf 86 36 26 c0 8c d6 1e 3f
       0.037751216 -0.8428035 -2.5970778 0.6204612
000360 75 15 12 3f f2 f5 a6 3e 43 2b 92 bf 69 05 06 3e
       0.5706399 0.32609516 -1.1419452 0.13088001
000370 34 71 0a 3f 82 09 e2 3e d2 81 9d 3e 7a a5 e4 bf
       0.54078984 0.4414788 0.30763108 -1.7863
000380 cc 6b 22 3f a7 55 91 3e 3f 7b 67 3e 3c 51 a6 3f
       0.63445735 0.2838566 0.22605608 1.2993541
000390 c1 64 1f c0 22 64 04 c0 b9 f8 51 bf 3d 9c 32 c0
       -2.4905245 -2.0686116 -0.82020146 -2.790786
0003a0 51 4b d4 bf 12 78 f8 be bb 30 10 3e 69 1c f0 3e
       -1.6585485 -0.48529106 0.14081089 0.46896675
0003b0 01 ef 8e 3e 1b b2 76 bf cb 26 b9 bd 98 cd f5 3e
       0.2791672 -0.9636552 -0.09040602 0.48008418
0003c0 f0 97 0f 3f b4 2a f4 3e 68 66 18 3e 8c 17 c5 be
       0.56091213 0.4768883 0.14882815 -0.38494527
0003d0 fd 24 8a 3e e5 58 ee bf 63 5a b9 bf ab 79 b7 bf
       0.26981345 -1.8620878 -1.4480709 -1.4334005
0003e0 9f 5c f7 bd 18 86 c5 3e 3f 0e b6 bf af c6 7a be
       -0.12078213 0.38578868 -1.4223098 -0.24489854
0003f0 83 ad ee ba e7 32 d4 be 0f 4c d3 3e be e9 03 c0
       -0.001820967 -0.41445085 0.41268966 -2.0611415
